…
-> result/HCmerge.po/onehot_embedding_cnn_two_branch folder already exist. pass.
########################################
gen_name
HCmerge.po
########################################

########################################
model_name
onehot_embedding_dense
########################################

Found 20140 images belonging to 2 classes.
Found 2488 images belonging to 2 classes.
Model: "sequential"
_________________________________________________________________
Layer (type)                 Output Shape              Param #   
=================================================================
embedding (Embedding)        (None, 20002, 5, 1, 8)    32776     
_________________________________________________________________
flatten (Flatten)            (None, 800080)            0         
_________________________________________________________________
batch_normalization (BatchNo (None, 800080)            3200320   
_________________________________________________________________
dense (Dense)                (None, 512)               409641472 
_________________________________________________________________
batch_normalization_1 (Batch (None, 512)               2048      
_________________________________________________________________
activation (Activation)      (None, 512)               0         
_________________________________________________________________
dropout (Dropout)            (None, 512)               0         
_________________________________________________________________
dense_1 (Dense)              (None, 512)               262656    
_________________________________________________________________
batch_normalization_2 (Batch (None, 512)               2048      
_________________________________________________________________
activation_1 (Activation)    (None, 512)               0         
_________________________________________________________________
dropout_1 (Dropout)          (None, 512)               0         
_________________________________________________________________
dense_2 (Dense)              (None, 512)               262656    
_________________________________________________________________
batch_normalization_3 (Batch (None, 512)               2048      
_________________________________________________________________
activation_2 (Activation)    (None, 512)               0         
_________________________________________________________________
dropout_2 (Dropout)          (None, 512)               0         
_________________________________________________________________
dense_3 (Dense)              (None, 512)               262656    
_________________________________________________________________
batch_normalization_4 (Batch (None, 512)               2048      
_________________________________________________________________
activation_3 (Activation)    (None, 512)               0         
_________________________________________________________________
dense_4 (Dense)              (None, 2)                 1026      
=================================================================
Total params: 413,671,754
Trainable params: 412,067,498
Non-trainable params: 1,604,256
_________________________________________________________________
Epoch 1/500
629/629 - 116s - loss: 0.6928 - accuracy: 0.6068 - val_loss: 0.8997 - val_accuracy: 0.5065
Epoch 2/500
629/629 - 117s - loss: 0.5386 - accuracy: 0.7426 - val_loss: 1.1116 - val_accuracy: 0.5588
…
Layer (type)                    Output Shape         Param #     Connected to                     
==================================================================================================
input_1 (InputLayer)            [(None, 10001)]      0                                            
__________________________________________________________________________________________________
input_2 (InputLayer)            [(None, 10001)]      0                                            
__________________________________________________________________________________________________
embedding (Embedding)           (None, 10001, 100)   409700      input_1[0][0]                    
__________________________________________________________________________________________________
embedding_1 (Embedding)         (None, 10001, 100)   409700      input_2[0][0]                    
__________________________________________________________________________________________________
concatenate (Concatenate)       (None, 20002, 100)   0           embedding[0][0]                  
                                                                 embedding_1[0][0]                
__________________________________________________________________________________________________
sequential (Sequential)         (None, 155, 64)      205888      concatenate[0][0]                
__________________________________________________________________________________________________
flatten (Flatten)               (None, 9920)         0           sequential[0][0]                 
__________________________________________________________________________________________________
batch_normalization_4 (BatchNor (None, 9920)         39680       flatten[0][0]                    
__________________________________________________________________________________________________
dropout (Dropout)               (None, 9920)         0           batch_normalization_4[0][0]      
__________________________________________________________________________________________________
dense (Dense)                   (None, 512)          5079552     dropout[0][0]                    
__________________________________________________________________________________________________
batch_normalization_5 (BatchNor (None, 512)          2048        dense[0][0]                      
__________________________________________________________________________________________________
activation_4 (Activation)       (None, 512)          0           batch_normalization_5[0][0]      
__________________________________________________________________________________________________
dropout_1 (Dropout)             (None, 512)          0           activation_4[0][0]               
__________________________________________________________________________________________________
dense_1 (Dense)                 (None, 512)          262656      dropout_1[0][0]                  
__________________________________________________________________________________________________
batch_normalization_6 (BatchNor (None, 512)          2048        dense_1[0][0]                    
__________________________________________________________________________________________________
activation_5 (Activation)       (None, 512)          0           batch_normalization_6[0][0]      
__________________________________________________________________________________________________
dropout_2 (Dropout)             (None, 512)          0           activation_5[0][0]               
__________________________________________________________________________________________________
dense_2 (Dense)                 (None, 1)            513         dropout_2[0][0]                  
==================================================================================================
Total params: 6,411,785
Trainable params: 6,389,385
Non-trainable params: 22,400
__________________________________________________________________________________________________
Epoch 1/500
630/630 - 87s - loss: 0.8893 - accuracy: 0.5027 - val_loss: 0.6935 - val_accuracy: 0.5301
…
Layer (type)                    Output Shape         Param #     Connected to                     
==================================================================================================
input_1 (InputLayer)            [(None, 10001)]      0                                            
__________________________________________________________________________________________________
input_2 (InputLayer)            [(None, 10001)]      0                                            
__________________________________________________________________________________________________
embedding (Embedding)           (None, 10001, 100)   409700      input_1[0][0]                    
__________________________________________________________________________________________________
embedding_1 (Embedding)         (None, 10001, 100)   409700      input_2[0][0]                    
__________________________________________________________________________________________________
sequential (Sequential)         (None, 77, 64)       205888      embedding[0][0]                  
__________________________________________________________________________________________________
sequential_1 (Sequential)       (None, 77, 64)       205888      embedding_1[0][0]                
__________________________________________________________________________________________________
flatten (Flatten)               (None, 4928)         0           sequential[0][0]                 
__________________________________________________________________________________________________
flatten_1 (Flatten)             (None, 4928)         0           sequential_1[0][0]               
__________________________________________________________________________________________________
concatenate (Concatenate)       (None, 9856)         0           flatten[0][0]                    
                                                                 flatten_1[0][0]                  
__________________________________________________________________________________________________
batch_normalization_8 (BatchNor (None, 9856)         39424       concatenate[0][0]                
__________________________________________________________________________________________________
dropout (Dropout)               (None, 9856)         0           batch_normalization_8[0][0]      
__________________________________________________________________________________________________
dense (Dense)                   (None, 512)          5046784     dropout[0][0]                    
__________________________________________________________________________________________________
batch_normalization_9 (BatchNor (None, 512)          2048        dense[0][0]                      
__________________________________________________________________________________________________
activation_8 (Activation)       (None, 512)          0           batch_normalization_9[0][0]      
__________________________________________________________________________________________________
dropout_1 (Dropout)             (None, 512)          0           activation_8[0][0]               
__________________________________________________________________________________________________
dense_1 (Dense)                 (None, 512)          262656      dropout_1[0][0]                  
__________________________________________________________________________________________________
batch_normalization_10 (BatchNo (None, 512)          2048        dense_1[0][0]                    
__________________________________________________________________________________________________
activation_9 (Activation)       (None, 512)          0           batch_normalization_10[0][0]     
__________________________________________________________________________________________________
dropout_2 (Dropout)             (None, 512)          0           activation_9[0][0]               
__________________________________________________________________________________________________
dense_2 (Dense)                 (None, 1)            513         dropout_2[0][0]                  
==================================================================================================
Total params: 6,584,649
Trainable params: 6,561,865
Non-trainable params: 22,784
__________________________________________________________________________________________________
Epoch 1/500
630/630 - 87s - loss: 0.8941 - accuracy: 0.5009 - val_loss: 0.7271 - val_accuracy: 0.5032
…
