…
-> make new folder: result/ME.pp/onehot_embedding_cnn_two_branch
########################################
gen_name
ME.pp
########################################

########################################
model_name
onehot_cnn_one_branch
########################################

Found 3436 images belonging to 2 classes.
Found 424 images belonging to 2 classes.
Model: "sequential"
_________________________________________________________________
Layer (type)                 Output Shape              Param #   
=================================================================
conv2d (Conv2D)              (None, 5001, 5, 64)       1600      
_________________________________________________________________
batch_normalization (BatchNo (None, 5001, 5, 64)       256       
_________________________________________________________________
conv2d_1 (Conv2D)            (None, 1251, 5, 64)       98368     
_________________________________________________________________
batch_normalization_1 (Batch (None, 1251, 5, 64)       256       
_________________________________________________________________
conv2d_2 (Conv2D)            (None, 313, 5, 64)        98368     
_________________________________________________________________
batch_normalization_2 (Batch (None, 313, 5, 64)        256       
_________________________________________________________________
max_pooling2d (MaxPooling2D) (None, 156, 5, 64)        0         
_________________________________________________________________
batch_normalization_3 (Batch (None, 156, 5, 64)        256       
_________________________________________________________________
conv2d_3 (Conv2D)            (None, 39, 5, 128)        196736    
_________________________________________________________________
batch_normalization_4 (Batch (None, 39, 5, 128)        512       
_________________________________________________________________
conv2d_4 (Conv2D)            (None, 10, 5, 128)        393344    
_________________________________________________________________
batch_normalization_5 (Batch (None, 10, 5, 128)        512       
_________________________________________________________________
conv2d_5 (Conv2D)            (None, 3, 5, 128)         393344    
_________________________________________________________________
batch_normalization_6 (Batch (None, 3, 5, 128)         512       
_________________________________________________________________
max_pooling2d_1 (MaxPooling2 (None, 1, 5, 128)         0         
_________________________________________________________________
flatten (Flatten)            (None, 640)               0         
_________________________________________________________________
batch_normalization_7 (Batch (None, 640)               2560      
_________________________________________________________________
dense (Dense)                (None, 512)               328192    
_________________________________________________________________
dropout (Dropout)            (None, 512)               0         
_________________________________________________________________
dense_1 (Dense)              (None, 512)               262656    
_________________________________________________________________
dropout_1 (Dropout)          (None, 512)               0         
_________________________________________________________________
dense_2 (Dense)              (None, 512)               262656    
_________________________________________________________________
dense_3 (Dense)              (None, 2)                 1026      
=================================================================
Total params: 2,041,410
Trainable params: 2,038,850
Non-trainable params: 2,560
_________________________________________________________________
Epoch 1/500
107/107 - 130s - loss: 0.7815 - accuracy: 0.4985 - val_loss: 0.6912 - val_accuracy: 0.5072
Epoch 2/500
107/107 - 13s - loss: 0.7225 - accuracy: 0.5458 - val_loss: 0.6880 - val_accuracy: 0.5288
…
-> result/ME.pp/embedding_cnn_two_branch folder already exist. pass.
-> result/ME.pp/embedding_dense folder already exist. pass.
-> result/ME.pp/onehot_embedding_cnn_one_branch folder already exist. pass.
-> result/ME.pp/onehot_embedding_cnn_two_branch folder already exist. pass.
Model: "functional_1"
__________________________________________________________________________________________________
Layer (type)                    Output Shape         Param #     Connected to                     
==================================================================================================
input_1 (InputLayer)            [(None, 10001, 5, 1) 0                                            
__________________________________________________________________________________________________
input_2 (InputLayer)            [(None, 10001, 5, 1) 0                                            
__________________________________________________________________________________________________
conv2d (Conv2D)                 (None, 2501, 5, 64)  1600        input_1[0][0]                    
__________________________________________________________________________________________________
conv2d_6 (Conv2D)               (None, 2501, 5, 64)  1600        input_2[0][0]                    
__________________________________________________________________________________________________
batch_normalization (BatchNorma (None, 2501, 5, 64)  256         conv2d[0][0]                     
__________________________________________________________________________________________________
batch_normalization_8 (BatchNor (None, 2501, 5, 64)  256         conv2d_6[0][0]                   
__________________________________________________________________________________________________
conv2d_1 (Conv2D)               (None, 626, 5, 64)   98368       batch_normalization[0][0]        
__________________________________________________________________________________________________
conv2d_7 (Conv2D)               (None, 626, 5, 64)   98368       batch_normalization_8[0][0]      
__________________________________________________________________________________________________
batch_normalization_1 (BatchNor (None, 626, 5, 64)   256         conv2d_1[0][0]                   
__________________________________________________________________________________________________
batch_normalization_9 (BatchNor (None, 626, 5, 64)   256         conv2d_7[0][0]                   
__________________________________________________________________________________________________
conv2d_2 (Conv2D)               (None, 157, 5, 64)   98368       batch_normalization_1[0][0]      
__________________________________________________________________________________________________
conv2d_8 (Conv2D)               (None, 157, 5, 64)   98368       batch_normalization_9[0][0]      
__________________________________________________________________________________________________
batch_normalization_2 (BatchNor (None, 157, 5, 64)   256         conv2d_2[0][0]                   
__________________________________________________________________________________________________
batch_normalization_10 (BatchNo (None, 157, 5, 64)   256         conv2d_8[0][0]                   
__________________________________________________________________________________________________
max_pooling2d (MaxPooling2D)    (None, 78, 5, 64)    0           batch_normalization_2[0][0]      
__________________________________________________________________________________________________
max_pooling2d_2 (MaxPooling2D)  (None, 78, 5, 64)    0           batch_normalization_10[0][0]     
__________________________________________________________________________________________________
batch_normalization_3 (BatchNor (None, 78, 5, 64)    256         max_pooling2d[0][0]              
__________________________________________________________________________________________________
batch_normalization_11 (BatchNo (None, 78, 5, 64)    256         max_pooling2d_2[0][0]            
__________________________________________________________________________________________________
conv2d_3 (Conv2D)               (None, 20, 5, 128)   196736      batch_normalization_3[0][0]      
__________________________________________________________________________________________________
conv2d_9 (Conv2D)               (None, 20, 5, 128)   196736      batch_normalization_11[0][0]     
__________________________________________________________________________________________________
batch_normalization_4 (BatchNor (None, 20, 5, 128)   512         conv2d_3[0][0]                   
__________________________________________________________________________________________________
batch_normalization_12 (BatchNo (None, 20, 5, 128)   512         conv2d_9[0][0]                   
__________________________________________________________________________________________________
conv2d_4 (Conv2D)               (None, 5, 5, 128)    393344      batch_normalization_4[0][0]      
__________________________________________________________________________________________________
conv2d_10 (Conv2D)              (None, 5, 5, 128)    393344      batch_normalization_12[0][0]     
__________________________________________________________________________________________________
batch_normalization_5 (BatchNor (None, 5, 5, 128)    512         conv2d_4[0][0]                   
__________________________________________________________________________________________________
batch_normalization_13 (BatchNo (None, 5, 5, 128)    512         conv2d_10[0][0]                  
__________________________________________________________________________________________________
conv2d_5 (Conv2D)               (None, 2, 5, 128)    393344      batch_normalization_5[0][0]      
__________________________________________________________________________________________________
conv2d_11 (Conv2D)              (None, 2, 5, 128)    393344      batch_normalization_13[0][0]     
__________________________________________________________________________________________________
batch_normalization_6 (BatchNor (None, 2, 5, 128)    512         conv2d_5[0][0]                   
__________________________________________________________________________________________________
batch_normalization_14 (BatchNo (None, 2, 5, 128)    512         conv2d_11[0][0]                  
__________________________________________________________________________________________________
max_pooling2d_1 (MaxPooling2D)  (None, 1, 5, 128)    0           batch_normalization_6[0][0]      
__________________________________________________________________________________________________
max_pooling2d_3 (MaxPooling2D)  (None, 1, 5, 128)    0           batch_normalization_14[0][0]     
__________________________________________________________________________________________________
flatten (Flatten)               (None, 640)          0           max_pooling2d_1[0][0]            
__________________________________________________________________________________________________
flatten_1 (Flatten)             (None, 640)          0           max_pooling2d_3[0][0]            
__________________________________________________________________________________________________
batch_normalization_7 (BatchNor (None, 640)          2560        flatten[0][0]                    
__________________________________________________________________________________________________
batch_normalization_15 (BatchNo (None, 640)          2560        flatten_1[0][0]                  
__________________________________________________________________________________________________
dense (Dense)                   (None, 512)          328192      batch_normalization_7[0][0]      
__________________________________________________________________________________________________
dense_1 (Dense)                 (None, 512)          328192      batch_normalization_15[0][0]     
__________________________________________________________________________________________________
dropout (Dropout)               (None, 512)          0           dense[0][0]                      
__________________________________________________________________________________________________
dropout_1 (Dropout)             (None, 512)          0           dense_1[0][0]                    
__________________________________________________________________________________________________
concatenate (Concatenate)       (None, 1024)         0           dropout[0][0]                    
                                                                 dropout_1[0][0]                  
__________________________________________________________________________________________________
dense_2 (Dense)                 (None, 512)          524800      concatenate[0][0]                
__________________________________________________________________________________________________
dropout_2 (Dropout)             (None, 512)          0           dense_2[0][0]                    
__________________________________________________________________________________________________
dense_3 (Dense)                 (None, 512)          262656      dropout_2[0][0]                  
__________________________________________________________________________________________________
dense_4 (Dense)                 (None, 2)            1026        dense_3[0][0]                    
==================================================================================================
Total params: 3,818,626
Trainable params: 3,813,506
Non-trainable params: 5,120
__________________________________________________________________________________________________
Found 3436 images belonging to 2 classes.
Found 3436 images belonging to 2 classes.
…
-> result/ME.pp/onehot_embedding_cnn_two_branch folder already exist. pass.
########################################
gen_name
ME.pp
########################################

########################################
model_name
onehot_dense
########################################

Found 3436 images belonging to 2 classes.
Found 424 images belonging to 2 classes.
Model: "sequential"
_________________________________________________________________
Layer (type)                 Output Shape              Param #   
=================================================================
flatten (Flatten)            (None, 100010)            0         
_________________________________________________________________
batch_normalization (BatchNo (None, 100010)            400040    
_________________________________________________________________
dense (Dense)                (None, 512)               51205632  
_________________________________________________________________
batch_normalization_1 (Batch (None, 512)               2048      
_________________________________________________________________
activation (Activation)      (None, 512)               0         
_________________________________________________________________
dropout (Dropout)            (None, 512)               0         
_________________________________________________________________
dense_1 (Dense)              (None, 512)               262656    
_________________________________________________________________
batch_normalization_2 (Batch (None, 512)               2048      
_________________________________________________________________
activation_1 (Activation)    (None, 512)               0         
_________________________________________________________________
dropout_1 (Dropout)          (None, 512)               0         
_________________________________________________________________
dense_2 (Dense)              (None, 512)               262656    
_________________________________________________________________
batch_normalization_3 (Batch (None, 512)               2048      
_________________________________________________________________
activation_2 (Activation)    (None, 512)               0         
_________________________________________________________________
dropout_2 (Dropout)          (None, 512)               0         
_________________________________________________________________
dense_3 (Dense)              (None, 512)               262656    
_________________________________________________________________
batch_normalization_4 (Batch (None, 512)               2048      
_________________________________________________________________
activation_3 (Activation)    (None, 512)               0         
_________________________________________________________________
dense_4 (Dense)              (None, 2)                 1026      
=================================================================
Total params: 52,402,858
Trainable params: 52,198,742
Non-trainable params: 204,116
_________________________________________________________________
Epoch 1/500
107/107 - 23s - loss: 0.8074 - accuracy: 0.5050 - val_loss: 0.6779 - val_accuracy: 0.5721
Epoch 2/500
107/107 - 10s - loss: 0.7137 - accuracy: 0.5787 - val_loss: 0.6689 - val_accuracy: 0.5865
…
