…
Layer (type)                    Output Shape         Param #     Connected to                     
==================================================================================================
input_1 (InputLayer)            [(None, 10001)]      0                                            
__________________________________________________________________________________________________
input_2 (InputLayer)            [(None, 10001)]      0                                            
__________________________________________________________________________________________________
embedding (Embedding)           (None, 10001, 100)   409700      input_1[0][0]                    
__________________________________________________________________________________________________
embedding_1 (Embedding)         (None, 10001, 100)   409700      input_2[0][0]                    
__________________________________________________________________________________________________
concatenate (Concatenate)       (None, 20002, 100)   0           embedding[0][0]                  
                                                                 embedding_1[0][0]                
__________________________________________________________________________________________________
sequential (Sequential)         (None, 155, 64)      205888      concatenate[0][0]                
__________________________________________________________________________________________________
flatten (Flatten)               (None, 9920)         0           sequential[0][0]                 
__________________________________________________________________________________________________
batch_normalization_4 (BatchNor (None, 9920)         39680       flatten[0][0]                    
__________________________________________________________________________________________________
dropout (Dropout)               (None, 9920)         0           batch_normalization_4[0][0]      
__________________________________________________________________________________________________
dense (Dense)                   (None, 512)          5079552     dropout[0][0]                    
__________________________________________________________________________________________________
batch_normalization_5 (BatchNor (None, 512)          2048        dense[0][0]                      
__________________________________________________________________________________________________
activation_4 (Activation)       (None, 512)          0           batch_normalization_5[0][0]      
__________________________________________________________________________________________________
dropout_1 (Dropout)             (None, 512)          0           activation_4[0][0]               
__________________________________________________________________________________________________
dense_1 (Dense)                 (None, 512)          262656      dropout_1[0][0]                  
__________________________________________________________________________________________________
batch_normalization_6 (BatchNor (None, 512)          2048        dense_1[0][0]                    
__________________________________________________________________________________________________
activation_5 (Activation)       (None, 512)          0           batch_normalization_6[0][0]      
__________________________________________________________________________________________________
dropout_2 (Dropout)             (None, 512)          0           activation_5[0][0]               
__________________________________________________________________________________________________
dense_2 (Dense)                 (None, 1)            513         dropout_2[0][0]                  
==================================================================================================
Total params: 6,411,785
Trainable params: 6,389,385
Non-trainable params: 22,400
__________________________________________________________________________________________________
Epoch 1/500
136/136 - 18s - loss: 0.8715 - accuracy: 0.5059 - val_loss: 0.6992 - val_accuracy: 0.4916
…
Layer (type)                    Output Shape         Param #     Connected to                     
==================================================================================================
input_1 (InputLayer)            [(None, 10001)]      0                                            
__________________________________________________________________________________________________
input_2 (InputLayer)            [(None, 10001)]      0                                            
__________________________________________________________________________________________________
embedding (Embedding)           (None, 10001, 100)   409700      input_1[0][0]                    
__________________________________________________________________________________________________
embedding_1 (Embedding)         (None, 10001, 100)   409700      input_2[0][0]                    
__________________________________________________________________________________________________
sequential (Sequential)         (None, 77, 64)       205888      embedding[0][0]                  
__________________________________________________________________________________________________
sequential_1 (Sequential)       (None, 77, 64)       205888      embedding_1[0][0]                
__________________________________________________________________________________________________
flatten (Flatten)               (None, 4928)         0           sequential[0][0]                 
__________________________________________________________________________________________________
flatten_1 (Flatten)             (None, 4928)         0           sequential_1[0][0]               
__________________________________________________________________________________________________
concatenate (Concatenate)       (None, 9856)         0           flatten[0][0]                    
                                                                 flatten_1[0][0]                  
__________________________________________________________________________________________________
batch_normalization_8 (BatchNor (None, 9856)         39424       concatenate[0][0]                
__________________________________________________________________________________________________
dropout (Dropout)               (None, 9856)         0           batch_normalization_8[0][0]      
__________________________________________________________________________________________________
dense (Dense)                   (None, 512)          5046784     dropout[0][0]                    
__________________________________________________________________________________________________
batch_normalization_9 (BatchNor (None, 512)          2048        dense[0][0]                      
__________________________________________________________________________________________________
activation_8 (Activation)       (None, 512)          0           batch_normalization_9[0][0]      
__________________________________________________________________________________________________
dropout_1 (Dropout)             (None, 512)          0           activation_8[0][0]               
__________________________________________________________________________________________________
dense_1 (Dense)                 (None, 512)          262656      dropout_1[0][0]                  
__________________________________________________________________________________________________
batch_normalization_10 (BatchNo (None, 512)          2048        dense_1[0][0]                    
__________________________________________________________________________________________________
activation_9 (Activation)       (None, 512)          0           batch_normalization_10[0][0]     
__________________________________________________________________________________________________
dropout_2 (Dropout)             (None, 512)          0           activation_9[0][0]               
__________________________________________________________________________________________________
dense_2 (Dense)                 (None, 1)            513         dropout_2[0][0]                  
==================================================================================================
Total params: 6,584,649
Trainable params: 6,561,865
Non-trainable params: 22,784
__________________________________________________________________________________________________
Epoch 1/500
136/136 - 18s - loss: 0.8791 - accuracy: 0.4980 - val_loss: 0.6954 - val_accuracy: 0.5121
…
